models/checkpoint_actor_1.pth (torch_old, 183836 bytes, 6 tensors)

fc1.weight f4 [256, 48]
00000000: a556 3abe 1e86 c23e 5a62 f53c b3e0 8a3d
00000010: 007d b63e f2e7 d7be 7266 0f3d 7320 f83d
00000020: a834 21be 858e ed3e 7c50 5ebc ea5e 00be
00000030: 5540 833c 9c94 2cbf c6a5 453d bdd9 0dbd
00000040: 1c90 45be 9b71 ba3e a9bb 70bc 5ba2 59be
00000050: adc0 c7be e055 2bbf 727d c33c cdd8 11be
00000060: fc67 bcbe a9b1 933f 59a1 75bd ae8d bd3e
00000070: d4ac b7be 56fd f2be a4a8 0e3d 1060 c03e
00000080: dad9 a0be 6690 a23f 4b38 fabc 2ffa a23e
00000090: d64c 13bd 1223 2cbf 3ad5 81bd d90f bb3e
000000a0: 66b1 dcbe 6db6 983f cdf1 87bc ca4e 1cbf
000000b0: 4372 cc3e 020e 2abf 7f38 f63c 090c 14bf
000000c0: 54b4 643e 7a61 31bf f321 74be 3711 9f3e
000000d0: a536 80bf 99ad 3dbe be5f 52be fd4c ab3e
000000e0: c3e5 3d3e cd13 3ebf 43b9 25be b38c 543e
000000f0: f58e 29bf f665 b13e a6c9 94bd f95f 7c3e
00000100: 8635 1a3e 6668 34bf 63f2 f03d 5a55 42be
00000110: 52b6 69be 6fcd 263f 7d79 d33d 7f3d 70be
00000120: 60d4 26be 9b72 a3be e386 03bd d984 eebd
00000130: 6347 743f e92c 43be df64 13bd 8ef2 29be
00000140: e6a3 15be 1f00 9fbe c941 0f3d cf2e 6e3e
00000150: 4141 283f 5108 743e 72b6 043c 820c 2b3e
00000160: 9681 26be 8b2a e5bd b6d6 11be c1fd 833e
00000170: 92f4 ff3d 3f24 2d3f ca56 5abe 8f5a 983e
00000180: fbdc ba3d 4aed 123f edb0 6a3e b531 4fbe
00000190: b8ef 06bf 92b9 3d3f cd39 4e3e d34c e0bd
000001a0: ffc5 b23d a429 dd3e 9c67 b13d 78d9 81be
000001b0: c34d 2e3e 3119 323f 81fa 643d d4dd abbe
000001c0: 520a 433e d833 053f 0a68 84bd 441e ccbe
000001d0: 180c 273f 19e2 a43e 118f a4bd 3088 c4be
000001e0: 5ed4 193e 281d 1fbf b6aa 0abd 9a07 33be
000001f0: eaa8 fb3e 588e 3d3f 647f 0c3d f603 4bbe
00000200: 14d4 c03d d50d 12bf 64e7 65be 8d6d 4dbd
00000210: 1df5 5cbe d168 363f 8ca6 26be 5720 18be
00000220: d61d 923e 87a2 ccbe d42e 01be 4a3b e63d
00000230: 940e 2bbf fd7a 933e 454a a0bc e236 a53d
00000240: d06a c03e 44bb 5dbe 34be fabe 11b4 0a3e
00000250: 6d14 d7be 7e8e 5dbe 074c e2be 54ed 8e3d
00000260: 28ac 9b3e dfaa 1cbe 7d7a c6bd 6a09 253f
00000270: b36c 9abe 4d75 52be 596c f4bd d4d8 2a3f
00000280: 228f b33e 01d7 d8bc c21a ac3c 95d1 a43e
00000290: c61d 9ebd b504 93be 78ae 95bd 6b8f af3e
000002a0: e68f 5f3e 8d5d 073e 2a96 12bd dc87 203c
000002b0: 5bb4 a43e 5724 82be 5316 08bc 867e e83b
000002c0: fc47 653e b364 603e e8fa 8b3b ef26 8e3d
000002d0: 8507 aa3e 1d07 80be 6629 1e3d 101d 873b
000002e0: 1001 c03e 2317 893e aee0 e03d 4d64 c03d
000002f0: 2dc3 0b3e e781 34be dd0c d33c b386 a63d
00000300: f0e8 0c3d 0b42 f4be 6fd4 603e df52 223f
00000310: fd7c 2cbe db8e a8bd 4a95 923e 67a7 1b3f
00000320: 7de0 ca3d c072 e8be f4dd aa3d 9e82 e73e
00000330: 07fb d8be 6fcb 7ebd a809 853c 8d3b fc3e
00000340: f41a 003e 6e11 82be 0dc7 f73d c5f6 ed3e
00000350: 5766 46bf 908c 15be 7a52 273e 3512 cc3e
00000360: b18c 743e bd98 443e 218f 5c3d 4aba 0fbd
00000370: 8c59 c83d 4699 39bd 5224 e83d 0a82 ae3d
00000380: 29eb ba3e daf2 143e e624 c5bb dd65 2a3d
00000390: a391 d53e 78b3 0bbe 78f2 443d ab5f a7bc
000003a0: 26e7 ae3e 1590 263e 6d8e 9fbe 6ceb 06be
000003b0: 4341 553f a1ab 2fbe ab5c 7fbe 88dc 3dbe
000003c0: fd9e a9bc 0100 46bf a490 b3bd 2ffa b7be
000003d0: 5aa4 2b3f 7015 c7bd 5167 90bd 89ba b8be
000003e0: 8212 0e3d 795a 51bf f901 f33d 60fc 26be
000003f0: f138 10be 6601 643e 5f30 c93d 122d 2bbe
-0.18197115 0.37992948 0.029954124 0.06781139 0.35642242 -0.42169148 0.03500981 0.12115564
-0.15742743 0.46397796 -0.013568994 -0.12536207 0.016021887 -0.6741426 0.048253797 -0.03463148
-0.19293255 0.364148 -0.014693179 -0.2125334 -0.39014187 -0.6692791 0.023863528 -0.14242859
-0.36798084 1.1538593 -0.059968326 0.37022156 -0.35874045 -0.47458905 0.034828797 0.3757329
-0.31416208 1.2700317 -0.03054442 0.318315 -0.03596195 -0.67241013 -0.06339498 0.36535528
-0.43104094 1.1930672 -0.016594792 -0.6105772 0.39930925 -0.66427624 0.030056236 -0.57830864
0.22334415 -0.6928936 -0.23841076 0.3106782 -1.0016676 -0.18523254 -0.20544335 0.33457175
0.18544678 -0.74248964 -0.16183953 0.20756797 -0.6623376 0.34648103 -0.07265024 0.24645986
0.1505948 -0.704718 0.117649816 -0.18977872 -0.22823456 0.65157217 0.103259064 -0.23460959
-0.16291952 -0.31923375 -0.03211106 -0.116464324 0.9542143 -0.190601 -0.03598487 -0.16596434
-0.14613304 -0.3105478 0.034974847 0.23260044 0.6572457 0.23831297 0.008100139 0.1670399
-0.1626037 -0.11189755 -0.14242062 0.25779536 0.1249782 0.6763343 -0.2132217 0.2975659
0.0912418 0.57393324 0.22919054 -0.20233805 -0.5270953 0.7411128 0.20139237 -0.10952153
0.08729171 0.43195832 0.0866234 -0.25361228 0.17021851 0.6956969 0.05590296 -0.3356768
0.19046906 0.5203223 -0.064651564 -0.3986684 0.6525283 0.3220375 -0.080351 -0.38385153
0.15022418 -0.62153864 -0.03385421 -0.17483369 0.4915231 0.74045324 0.034301177 -0.1982573
0.09415451 -0.57052356 -0.2245155 -0.050153304 -0.21577878 0.7125369 -0.1627447 -0.14856087
0.28538388 -0.3996775 -0.1261552 0.11241777 -0.6681912 0.2880477 -0.019566664 0.08067109
0.3758149 -0.21653467 -0.48973238 0.13545252 -0.4200777 -0.21636388 -0.4419863 0.069788605
0.30404782 -0.15299557 -0.096913315 0.6446749 -0.30161056 -0.20552559 -0.11934728 0.66737103
0.3507014 -0.02646971 0.021008853 0.32191148 -0.077205226 -0.2871453 -0.07308668 0.34289107
0.21832237 0.1321928 -0.03578774 0.009798016 0.3216885 -0.2541835 -0.008306104 0.007095161
0.22390741 0.21913414 0.0042718537 0.0694102 0.33208862 -0.25005427 0.0386137 0.0041233376
0.3750081 0.26775464 0.10980354 0.09394131 0.13648672 -0.17627679 0.02576297 0.081311606
0.034401834 -0.47706637 0.21956037 0.634077 -0.16844554 -0.082303725 0.28629524 0.6080231
0.09906099 -0.45400047 0.083431154 0.4521684 -0.4237902 -0.06220573 0.016239956 0.49264184
0.12510282 -0.25403923 0.12098513 0.46477333 -0.7749991 -0.14604402 0.16340056 0.3985764
0.23881795 0.1919889 0.053847436 -0.03508977 0.09782705 -0.04531219 0.113350525 0.08520897
0.36507538 0.14545766 -0.0060163615 0.04160105 0.41712674 -0.1364268 0.0480828 -0.02043136
0.34160727 0.162659 -0.3116335 -0.13175744 0.83302706 -0.17155315 -0.24937694 -0.18541157
-0.020705694 -0.77343756 -0.087678224 -0.35933062 0.67047656 -0.09720886 -0.07050956 -0.36079815
0.03468562 -0.81778675 0.11865611 -0.16307211 -0.14084221 0.22266158 0.09823679 -0.16716412

fc1.bias f4 [256]
00000000: eb68 bc3e 8302 3fbe 0756 c3be bdd0 d7be
00000010: 5c05 1bbe bf83 6cbc 4bb4 bdbe 5a93 433e
00000020: b741 2d3e 60a5 93be 3926 1dbe 0b3d a1bd
00000030: 021f 3d3d ee53 9cbe eb06 81be 1eef 1c3d
00000040: 4603 0abe 0616 c6be 17e5 b1be 5887 4fbe
00000050: f0be 993e 82ec 84be 944a 9cbe b51f 8d3c
00000060: 1386 8cbd bcb3 e9be 49dc 7ebe 9ca7 83be
00000070: 76ae 9abe 0087 b0be 2563 b7bd 76b7 6ebe
00000080: 4831 d03d 22b9 21be 26d8 bdbe c6e5 cebe
00000090: d45f 8ebe b02a c6be 95ad 13bf 60e2 c3bd
000000a0: 1210 5c3e c9e1 c5bd 7f41 2abe 6bad 29be
000000b0: bc43 7c3d e3fe 7a3e 2748 e4be 5f20 7abd
000000c0: d46f 6fbb 633d 21be a1c8 08be 8519 b7be
000000d0: 31d8 aebe 0c6a 94be cbd1 81be 686a b4be
000000e0: 517d 0cbe 6db1 ab3e 7112 e33e e21f 5abe
000000f0: 8345 abbe eab9 633d c6fb c4be be34 e8bd
00000100: df95 1cbe 93ab eb3c 1238 73bb 816f a8be
00000110: c11e ffbe 983e 863e b681 b7bd 042d bdbe
00000120: cc7b 96bd 5d15 c8be bed3 893d b2e7 64be
00000130: a269 a5be 51b8 1abf 19ea cebe 2ced 01bf
00000140: 7f3a b6be def1 883b f829 66be 4da9 ebbe
00000150: 91ab 2cbe 6b06 e2be dfa4 88be 52ff 1e3e
00000160: 467c 493d 369b 1dbd 9ff9 fcbe 7043 bc3d
00000170: 9331 d4be 0b0a 2ebe d15a 41be aacb 9bbe
00000180: 32d0 93be 4e19 adbe 4864 15be 1d57 2b3e
00000190: 7d6a b3be 35b4 52be 3717 863d 2e4d 96be
000001a0: 58b7 0bbe 7a2c d5be effd 43be 5134 bdbe
000001b0: 1533 d9bd 4c1c 97be 6628 57be 6989 9bbe
000001c0: 0967 1bbd 4088 72be 085c b6be 3766 acbe
000001d0: 6b05 dcbe 6c04 8f3e 7262 013e d7d3 00bf
000001e0: a2e4 0bbf 418b b0be 9993 04bf b3a4 bbbd
000001f0: e4e2 e8bd ac32 1abe 3dd4 5b3e 5921 163e
00000200: 40d6 5bbe 70fc 443d 87f1 cebe 99fc 0dbf
00000210: b23b debe 24f6 44be b94c dbbd 66e0 573b
00000220: 6c96 d6be 261d 413d 2d80 25bd 9f7e e9be
00000230: 266a 97be a64a a1be f0af febe 8ee1 83bd
00000240: 51dc c4bd ecd6 5dbe b245 74be f2d0 963e
00000250: a805 6abe 2637 7cbe a0e2 9fbe 625e 66be
00000260: 21a8 0d3b c795 013f de71 3dbe f00e 0abf
00000270: b39a a6be 90be a4be 535f f8bd 8823 1a3e
00000280: 7619 1cbf ee6c 45bd 2b23 85be 24df c43d
00000290: b6f5 14bf a623 cabe 31ab 8dbc d225 8a3c
000002a0: 6462 73be 6040 963e 36e5 84be f31b c9bd
000002b0: 1bc6 06be df26 a7be 149b 3bbe e74c bfbe
000002c0: f936 453c 4d03 d8be 5bf2 933d b7ca 11bd
000002d0: 79d2 a2be 40fe 283e 0456 f4bd 21f2 8bbe
000002e0: b7b0 3c3d 4c56 49be 0459 35be 4d44 80be
000002f0: c5cb 5c3d 538c 8ebe 48bb cd3e 673c b6bd
00000300: 5afd 76be 4215 77bb 1c7e a23c cd57 44bc
00000310: aaa8 67be 8ac1 0dbf b91e 5cbe ebf9 7bbe
00000320: a541 1fbe 1911 90be 0a03 283e 0222 c7bb
00000330: 6f63 8b3e a192 a3bc a802 ffbe decb 09bf
00000340: 94ca 77be f90f 04be c780 ea3d a4d0 8abe
00000350: 9cc3 bbbc 6330 3ebe fa2f abbd 9795 2b3e
00000360: 6992 e6be 41a0 8dbe 6b1a 11bf 4579 f5be
00000370: badc 083f bd3a 9f3e fcbf 4b3d 79cb 4dbb
00000380: 01e1 32be bf64 aabe 77fa 9ebe 179c 54be
00000390: 3c28 cbbe 6f33 bbbd 7551 dcbd b357 1b3e
000003a0: 6168 aa3e 2750 9ebc 2692 4f3d ab4f c9be
000003b0: 4c4a 5cbe 7280 42be e771 85be 0b8b 90be
000003c0: 8877 d3bd e298 a4be 6cf5 6ebe ee4c a6be
000003d0: 5d61 b9be c7f6 77be 6e00 b8be e145 92bd
000003e0: e329 7dbe ebff 86be b4c2 13be 5627 90bd
000003f0: a1b0 b9bd 8fa1 c6be 868b 11bf 5d5f fb3c
0.36798796 -0.18653302 -0.3815157 -0.42151442 -0.15138763 -0.014435708 -0.37051615 0.19099179
0.169196 -0.2883711 -0.15346612 -0.07872971 0.04617215 -0.30532783 -0.2520059 0.038313977
-0.13477811 -0.38688678 -0.34745094 -0.20266473 0.30028486 -0.2596169 -0.3052565 0.017227033
-0.0686151 -0.4564494 -0.2488872 -0.25713813 -0.30211228 -0.34477997 -0.08954457 -0.23312172
0.1016565 -0.15793279 -0.3707897 -0.40409678 -0.27807486 -0.38704443 -0.5768674 -0.09564662
0.21490505 -0.09662206 -0.16626547 -0.1657006 0.061588034 0.24511294 -0.44586298 -0.061066028
-0.003653516 -0.15746073 -0.13357784 -0.35761657 -0.34149316 -0.28987157 -0.25355372 -0.35237432
-0.1371968 0.33533803 0.44350007 -0.21301225 -0.3345147 0.055597223 -0.38473338 -0.11338185
-0.15291546 0.028768336 -0.0037112278 -0.3289757 -0.4982815 0.2621963 -0.08960287 -0.36948407
-0.07347831 -0.390788 0.0672984 -0.2235401 -0.32307154 -0.60437495 -0.40412977 -0.5075252
-0.35591504 0.0041792234 -0.22476947 -0.46027604 -0.16862322 -0.44145522 -0.26688287 0.15527084
0.049190782 -0.0384781 -0.49409196 0.0919255 -0.41444072 -0.16996019 -0.188823 -0.3042882
-0.28869778 -0.33808368 -0.14589036 0.1673245 -0.35042182 -0.20576556 0.06547397 -0.29355758
-0.13644159 -0.41635495 -0.19139837 -0.36953977 -0.10605446 -0.29513776 -0.21011505 -0.30378273
-0.03794006 -0.23684788 -0.3561709 -0.33671734 -0.42972884 0.2793306 0.1263521 -0.5032324
-0.5464574 -0.34481242 -0.51787716 -0.09162273 -0.11371401 -0.15058392 0.21467681 0.14661159
-0.21468449 0.048092306 -0.40418646 -0.5546356 -0.4340492 -0.1923452 -0.10707993 0.0032940148
-0.41911638 0.04714694 -0.04040544 -0.45604417 -0.29573172 -0.31502265 -0.49743605 -0.064395055
-0.096123345 -0.21664017 -0.23854712 0.29456288 -0.2285372 -0.24630412 -0.3122759 -0.22496942
0.0021615105 0.5061917 -0.18500468 -0.5392904 -0.325399 -0.32176638 -0.12127557 0.15052617
-0.6097635 -0.048199587 -0.26003394 0.09612873 -0.58187425 -0.39480323 -0.017293544 0.016863737
-0.23768002 0.2934599 -0.25956124 -0.09819784 -0.13161509 -0.32646844 -0.18320876 -0.3736336
0.012037032 -0.42190018 0.0722396 -0.035593715 -0.31801203 0.16503239 -0.11930469 -0.27333167
0.046066966 -0.19661826 -0.17709738 -0.2505211 0.053905267 -0.27841434 0.40181947 -0.088982396
-0.24120083 -0.003770188 0.019835524 -0.011983824 -0.22622934 -0.5537344 -0.21496095 -0.24607055
-0.15552385 -0.28138044 0.1640741 -0.006077052 0.272243 -0.019967379 -0.49806714 -0.538267
-0.24198371 -0.12896718 0.114503436 -0.27112305 -0.022920422 -0.18573146 -0.0835876 0.16756283
-0.45033577 -0.27661327 -0.56680936 -0.47944084 0.534618 0.310995 0.049743637 -0.0031401797
-0.17468645 -0.33279988 -0.31050465 -0.20762669 -0.39679134 -0.091406696 -0.10757724 0.15170173
0.3328276 -0.019325329 0.050676487 -0.39318594 -0.21512717 -0.1899431 -0.26063463 -0.2823108
-0.10325533 -0.3214789 -0.23335809 -0.32480568 -0.36207095 -0.24215232 -0.35937828 -0.071422346
-0.2472301 -0.26367125 -0.14429742 -0.07038753 -0.090668924 -0.38795134 -0.5685352 0.030685121

fc2.weight f4 [128, 256]
00000000: 292a d5be 7450 81be 9165 e9be 1a3e 48bc
00000010: 5810 aebd e250 e3bd 9dbe 28be 8bb0 973d
00000020: c9ca bd3d 057d a23e c60e 9bbd 275f bdbc
00000030: ac43 bdbe c355 d13d c3cb f9be 9349 883e
00000040: 0d0c a5be 211e c03d 828b 723c a478 acbe
00000050: d1f8 01be 9df4 9dbc 1052 8bbe fd86 aebe
00000060: bc26 5cbe 99a8 94bd d36e c7bd 7e92 103f
00000070: 1f66 bc3d 4173 623e 3665 02bf 00d6 573e
00000080: 1e7e 603e 40c7 b9be 67b0 8b3d 4a9c 4f3e
00000090: b916 a63d 1ed9 133e 6b47 6c3e 7aea a43e
000000a0: d2d3 adbc 0b6e a83e ce55 c43d b697 9bbe
000000b0: 2377 8dbe 8752 b33d 2368 bbbd 33fb 3f3d
000000c0: 4d36 84be c8d7 833d 244b b13e c925 793e
000000d0: 07e5 9f3d 2a7a ffbc 3b1c 87be 66bc bfbd
000000e0: a150 71be e75b 65be 123c 2a3e 776d e9bd
000000f0: 50fc 9d3d 97ce 093f eb82 613e ec3e d7bc
00000100: 24fe 44be 5b7e 743e b9b6 863e b4aa d0be
00000110: 33dc a7bd 6092 103e 9423 2b3e 7c7d e9be
00000120: e51d 0fbe 9adf 3a3e 7adf 2f3e 2a2b cdbe
00000130: df8d 95be 363f 863e d045 cb3d a1cd aa3e
00000140: 2fbf cdbe 5bf7 bf3c 208a 323e 7d5d 02be
00000150: caf1 89be 4b37 eb3d 812d d83d 26ff 2a3e
00000160: 1af8 3ebe 5acd edbe 02e1 8a3e 5c1c 79be
00000170: e186 abbd 4518 763e 2c1e b6be cf4f 5a3b
00000180: 3c79 5ebd bec1 4a3e 43ad 433e 9d0b 113e
00000190: ae17 52be 2756 2dbe a5d2 a13b 9488 82bb
000001a0: e9de 90be 9e71 a43e fb72 58be a75c d8be
000001b0: bfa1 dbbd 91d7 4bbe 87ef 2abe dfe0 88be
000001c0: b3f7 fdbd d698 443e d9c7 a03e 5753 6fbd
000001d0: 69c6 a3be ebbd 95be 0a1b eb3d a9eb b93e
000001e0: 0fbe 5abd 1498 dabd c9c9 e5bd cdda c63c
000001f0: 60bd 5a3e ea64 893d 9e60 2bbe 027a 67bd
00000200: e213 29be c083 44be 5451 4d3e 3f78 15be
00000210: 0263 5fbe dfaf 643a d690 71bd f0dc 14bd
00000220: eb28 243e d18c b0be a737 6f3c b577 b5bb
00000230: 4a8b 873e 6164 9ebd 6683 b23e adf6 ce3d
00000240: 0844 383e 9aab 37be 4d32 7b3e 1a4a b9bd
00000250: 826b 1fbd 2d1b 263d 5198 1a3e bc5b 823e
00000260: 1401 ae3c 3409 3d3e 4c20 1e3e 1b4d 6abe
00000270: abba 3d3e b310 00bb a65a 44be fcd5 c0be
00000280: 18fe 06bd 1334 cc3d e888 56bd 8b6b b6be
00000290: 11c7 773d 5235 173e 9cac 9a3e c02b 983e
000002a0: 8681 36be d99c 983d d7f2 94bd a9b7 0cbe
000002b0: ecf5 37be 280a 95bd b163 24bd 77ef cbbe
000002c0: 40b9 073f d218 423e 960b 18bf 2a52 d4bd
000002d0: 192c ec3c 68b6 e53d de89 81bd 08e2 323e
000002e0: dbc7 2ebe 06a7 ebbd c05e 15be 9523 b1bd
000002f0: 977d a7be 7fda d13d 9d5a 19bd e7d6 cb3e
00000300: 6f92 ffbc 2427 6c3d fabd 7f3d 1d03 b0bd
00000310: e388 8abd f23d e73e e3af 15bc 48e8 863d
00000320: 532b c0bd f0a1 51bd a3f9 053e dce9 5c3e
00000330: a6d2 e2be c12f 803e c2ec f43d f4ed d9bd
00000340: f409 583c bc72 483e dbed b43a dc22 ab3c
00000350: 2bf1 83be 0689 22be 82d4 90bd 453e c0be
00000360: a9b4 953d 756b a8be 944a 243d 6759 f83e
00000370: 99f4 2ebd 5519 d6be ab03 2a3e f7d8 283e
00000380: acee b1bd 0ef4 10be 9f44 4abe 17e6 45be
00000390: a7ca 34bc 059c 4b3c 9ae1 6cbe 14bc 06be
000003a0: 1f85 2c3e 7d82 533d 1892 14be a416 c3bd
000003b0: 6585 b2be 2d3d ffbb 5e8b b5bd 1e17 a6bd
000003c0: 5ab7 363b 6507 24bd 418c c73e da70 e33e
000003d0: 1124 20be f35f 04be b672 e03e 321f 903e
000003e0: bafb 6c3e e82f a13d 53f9 debe e075 31be
000003f0: 085b 05be 0417 cebd 193c 153e a0a7 933b
-0.41633728 -0.25256693 -0.45585302 -0.012221837 -0.08499211 -0.110994115 -0.16478963 0.0740672
0.09267194 0.31736007 -0.07571177 -0.023116661 -0.36965692 0.10221436 -0.4878827 0.26618633
-0.32235757 0.09380747 0.014803769 -0.33685791 -0.12692572 -0.01928168 -0.27211046 -0.34087363
-0.21499151 -0.0725872 -0.09737935 0.5647353 0.091991656 0.22114278 -0.50935686 0.21077728
0.2192311 -0.36284828 0.068207555 0.20274463 0.08109803 0.14438292 0.23074119 0.3221014
-0.021219168 0.32896456 0.095866784 -0.30389184 -0.27629957 0.08755975 -0.09150722 0.04687042
-0.25822678 0.064376414 0.3462764 0.2433082 0.078073554 -0.031186182 -0.26388726 -0.09362106
-0.23565914 -0.22398339 0.16624478 -0.11397832 0.077141404 0.53830856 0.22022597 -0.02627512
-0.19237572 0.23876326 0.2631128 -0.40755236 -0.081962965 0.14118338 0.1671279 -0.4560355
-0.13976248 0.1824936 0.17175093 -0.40071994 -0.29209802 0.262201 0.09925425 0.33360007
-0.40184924 0.023433378 0.17435503 -0.12730975 -0.26942283 0.11485156 0.10555554 0.16698894
-0.1864933 -0.46445733 0.27124792 -0.24327224 -0.083753355 0.24032696 -0.35569894 0.003331173
-0.054314837 0.1980047 0.19109063 0.14164586 -0.20516846 -0.16927396 0.004938441 -0.0039835665
-0.28295067 0.32117933 -0.21137612 -0.42258188 -0.1072421 -0.19906451 -0.16692935 -0.26734063
-0.124007605 0.19198927 0.31402472 -0.05842909 -0.31987312 -0.29246458 0.11479767 0.36312607
-0.05340391 -0.10673538 -0.11220128 0.024274254 0.21361303 0.06708701 -0.16736075 -0.05651284
-0.16511491 -0.19190884 0.20050555 -0.14596651 -0.21815112 0.00087237166 -0.058976017 -0.036343515
0.16031234 -0.34482434 0.014600671 -0.005537952 0.26473457 -0.077339895 0.34865874 0.101056434
0.17994702 -0.17936555 0.24530907 -0.09047337 -0.038920887 0.04055326 0.15097167 0.25460613
0.021240748 0.18460542 0.15442008 -0.22880976 0.1852824 -0.0019541204 -0.19175205 -0.37663257
-0.032957166 0.0997087 -0.052376658 -0.35628924 0.06049258 0.14766434 0.30209816 0.2972088
-0.17822847 0.07451791 -0.072728805 -0.13741936 -0.17964906 -0.07277328 -0.040134136 -0.39831135
0.53017044 0.1895478 -0.5939268 -0.10367234 0.028829621 0.11216432 -0.06325124 0.17469037
-0.17068426 -0.115064666 -0.14586926 -0.08649365 -0.32713005 0.10246753 -0.03743993 0.39812395
-0.031197755 0.057654515 0.062437035 -0.08594344 -0.0676439 0.45164448 -0.009136173 0.06587273
-0.093832634 -0.051179826 0.1308351 0.21573585 -0.44301337 0.25036433 0.119592205 -0.10641089
0.013185967 0.19575018 0.0013803797 0.020890646 -0.25769934 -0.15872583 -0.07071783 -0.37547508
0.07309849 -0.32894483 0.040110186 0.4850571 -0.042713735 -0.41816202 0.16602962 0.16489016
-0.08688101 -0.141556 -0.1975274 -0.19326054 -0.011034644 0.012427335 -0.23132935 -0.13157684
0.16847657 0.051638115 -0.14508855 -0.09525803 -0.34867397 -0.007789275 -0.08864473 -0.08109878
0.0027880282 -0.040046114 0.38974193 0.44422036 -0.15638758 -0.12927227 0.43837517 0.281488
0.23142901 0.078704655 -0.43549594 -0.17330122 -0.13023007 -0.10062984 0.14573707 0.0045060664

fc2.bias f4 [128]
00000000: 33a9 2dbe fdab 3bbd 44f5 aebd a73f 21be
00000010: 09b8 a5be 6fdb ec3d be17 9abd f5cb 6dbd
00000020: d406 28be a711 21bd d764 a4be 57a0 6cbe
00000030: 9f75 09be 4d51 703d e312 68bd 36fe 09be
00000040: 3986 a0bd 7a9d 28be d9f5 333d 8f61 83bd
00000050: 46bd 22bc 02ec 5dbd 3a1b 8dbd ae58 81bc
00000060: ee84 4f3c 63d7 80be 2a4c 46bf 6d87 a6be
00000070: 7a2d afbd 19a7 d7bd fda3 eabd b222 a7be
00000080: 396f 66be b6b4 6fbe d25e c83d 3368 babe
00000090: 1d26 79be 3860 06bd 1239 76be 66af 6ebe
000000a0: d253 8ebe 3be6 24be b1a2 423e 2cb8 53be
000000b0: e89c b1bd 5e00 48bd 72dc c73d 8de2 c5bd
000000c0: 820c 67be 75e6 8ebd 2951 8ebe cdcf e3bd
000000d0: cd58 0ebe 041f d1bd 2b58 f4bd e4cb c1bd
000000e0: 93aa cebd 7bf6 a6be 91da a1be add6 0bbf
000000f0: a23b afbd b800 b2bc 94ad b4bd 518b 533e
00000100: 45b7 d4bd 83d3 a33c a1ca a3bd 4849 8abc
00000110: 9003 1c3c 0fb6 04bd 5298 5d3e bd01 b9be
00000120: 24aa c5bc 17ba 18be f630 a7be c3b9 4b3c
00000130: fadd d5bd 7605 55be 9853 94be c596 58be
00000140: 6c65 88be 47a4 7bbe d8fe 953d 1c4c 82be
00000150: b241 4bbe 5163 a0bd b657 14be 184b 4ebe
00000160: c370 57be 4191 64be cb27 50be 5833 b6be
00000170: d26a 33bd 9940 0dbe 5c24 2f3d b87c f7bd
00000180: 2f9d 2fbe a25b 92be ba57 04bf e0a8 e9bd
00000190: c351 97be 1384 073e 2ec7 1abe 3604 6dbe
000001a0: d548 c8bd 86e8 80b9 f4cc 203e b915 40be
000001b0: f3e2 4dbe 1d84 97be ec5d 94bd 1882 13be
000001c0: f897 b0be 80c9 23be 33a3 c1be 60eb 8abd
000001d0: 9684 8a3d b73b 373c 1b84 5bbd 6fc4 07bf
000001e0: 5f4e 45be 95de 09be 9539 5bbe 0655 56be
000001f0: 6a82 1ebe 61e4 3fbe 1d8e 5ebe 7986 e4bd
-0.16959076 -0.045818318 -0.085428745 -0.15746938 -0.3236697 0.11565291 -0.0752406 -0.058055837
-0.16408855 -0.039323475 -0.32108185 -0.2310804 -0.13423775 0.058671284 -0.056658637 -0.1347588
-0.07838101 -0.16466323 0.04393563 -0.06415092 -0.009932822 -0.054180153 -0.06889959 -0.015789356
0.01266597 -0.25164327 -0.7745997 -0.32525197 -0.08553596 -0.10529918 -0.114570595 -0.32643658
-0.22503366 -0.2340878 0.097837105 -0.36407623 -0.24330945 -0.032806605 -0.24045208 -0.23309097
-0.27798325 -0.16103451 0.19007374 -0.20675725 -0.086725056 -0.048828475 0.097588435 -0.09662352
-0.22563365 -0.0697755 -0.27796295 -0.11123619 -0.13901062 -0.10210994 -0.11930879 -0.09462717
-0.10091128 -0.32609925 -0.31612065 -0.54624444 -0.08556296 -0.021728858 -0.0882217 0.20658614
-0.103865184 0.019998318 -0.07997633 -0.016880646 0.009522334 -0.032400187 0.21640137 -0.3613414
-0.024128981 -0.14914738 -0.32654542 0.012434426 -0.10442729 -0.20802864 -0.28970027 -0.21151264
-0.2663988 -0.24574386 0.07323998 -0.25448692 -0.1984928 -0.07831443 -0.14486584 -0.20145833
-0.21039109 -0.22321035 -0.2032768 -0.35586047 -0.043803044 -0.13794173 0.042759284 -0.12084335
-0.17149805 -0.28585535 -0.5169636 -0.114091635 -0.29554567 0.13233976 -0.15115044 -0.23146138
-0.097795166 -0.00024587306 0.15703183 -0.18758287 -0.20106106 -0.29592982 -0.07244477 -0.14405096
-0.34490943 -0.15994835 -0.37819824 -0.067831755 0.0676357 0.011183671 -0.053592782 -0.5303411
-0.19268177 -0.13463815 -0.21408685 -0.20930871 -0.15479437 -0.18739463 -0.217339 -0.11158461

fc3.weight f4 [2, 128]
00000000: 1053 c1bd 4513 8c3d e4c5 a9bb dc4b 573c
00000010: b5aa 383e 5c2f 8cbe cd59 5e3d f085 95bc
00000020: badf b93d 10b3 483d edf9 f43d 004b 83be
00000030: bf0b 66bb 7589 463d c498 4a3d 613a 87be
00000040: 8646 ecbc 40b3 903d 9d30 093e bd94 4a3e
00000050: 9e45 93be 1b21 eebd 7a9b 1c3e 314e 953e
00000060: febc 073e cf52 4e3e e6ba 4e3e bd0b 5a3e
00000070: f0e6 8fbc 412f 983e 41dd 86bc 6870 3b3e
00000080: 8167 9cbe 676f 02be c3b5 893e 44a5 0b3e
00000090: 7b02 6ebc 9586 42bd 74b4 cf3d 54a3 223d
000000a0: 2aaa 4dbe bf2e 1ebd 12b1 46bd d6e2 f1bd
000000b0: f4f2 f9bc 79d8 3bbd 527f a2bd fd6f a5bb
000000c0: 4df8 f0bd 6eb8 b63b ca94 65be 0e5a 3c3c
000000d0: dd9c 26bc c4b1 8cbe 767f 803c fddc 4b3d
000000e0: 2216 babc d770 cebd 4ff7 54bd b5fa 8d3e
000000f0: 2b1d a93d b284 3b3e 2f66 173e f6cf 54bc
00000100: 29da 213e e6f3 593e 823d 9f3e 7284 923c
00000110: e28e c6be b284 b93d 9372 cd3c f6c3 83be
00000120: e809 35be dbe7 e53d 43e5 9a3e 606e d03d
00000130: da24 07be ecc1 893e 9a4e 50be a3d4 a0be
00000140: 26dd 2fbe 2232 a23e c12a 77bd 600f d8bc
00000150: f405 13be c2d5 55bc 9b2c 093d 390e 893d
00000160: 2822 aebd 10fb 413e c056 75be fd55 8fbd
00000170: b403 373e dbba f7bd 55ca 7b3e 339e 62bd
00000180: 6e2a 903e 3593 383e 7ad7 64bd 22d6 223e
00000190: e711 07bd 6c76 c33d 8a1e 323e 2afc 163d
000001a0: c12d 443b ccaa 35bc eb2d 423d f3b1 163e
000001b0: 3745 a7bd 7802 9ebd 5239 6d3c 830b 73bc
000001c0: 2d93 893c e29c 2a3e 6524 41be d152 083b
000001d0: 9688 a03d 11af 00bd 040f 5abe 6f69 f03d
000001e0: f85a debd 5fdc c8ba 2d4e 623d 8ab8 8dbc
000001f0: 696b 173e c02a e7bc 6799 643e 0c5f a6bd
00000200: 7c3e 7ebe d2ec 0f3e 1dbd 003b 5fd1 b6bd
00000210: 6566 023e cfb3 5b3f 97b8 243f a2e5 74bc
00000220: c82b b93e ae35 bf3e 0c42 c5be 3743 a4be
00000230: 3281 0b3c 480d 0f3f 6272 b4bc 341f 80bd
00000240: c7d6 8fbc 2e30 f4be 0d1f 8d3e 9689 f3bd
00000250: 8841 ed3d 34de 63bc 03f1 433e c35c 213e
00000260: d5e0 be3e 26a0 be3e 02b3 33bf 750c a8be
00000270: 53c7 ea3c 87d9 56be ad34 6fbc f311 2f3d
00000280: 09f1 893b e1a8 b93e 07e0 1f3e 590a 3d3e
00000290: 4cfc 04be a63e 933e cd8a 4bbd 7507 8f3e
000002a0: 9af3 15be 71fc a7bd 760c 373f f0b0 2a3f
000002b0: ecd1 1c3d f377 fc3e 59b6 b73e 9ca1 12bc
000002c0: aa25 cfbe 90ca 19bc 122e bc3b dd6e 54be
000002d0: 220c 763e 9b59 c93a c39e e4bc 2509 17bd
000002e0: 127c adbe 7f8e 3bbe e3d0 34bd f9b6 4cbd
000002f0: 1d12 99bd 6a55 563e bfaa 263f 197a d33e
00000300: 6f1c 04bf a1da 87bd cd84 1a3f 6ff4 073f
00000310: c7e0 e83e 6165 193f 2978 2f3f 891c ec3d
00000320: c960 2bbf 592f 073e 6bef a1be 0564 933e
00000330: f812 983d ff22 f63d d246 1b3d 9f43 973e
00000340: a3b2 fa3d 4fc3 873c 2cbf 4a3f 408b 1d3f
00000350: 4ad2 3c3c a704 f0ba ee7d 7b3c 27b7 fcbd
00000360: 3b1a 933e ed8a d83e 687d e6be 4ac9 66be
00000370: f898 933e 7a01 f23e 0ff6 c1bc 5c39 173f
00000380: 2fe6 a0bd 9a16 96be bc6c dfbe 1932 c53d
00000390: 6d94 12be bf47 333f 6a38 bbbe 032a 66be
000003a0: 4d89 53be 69db fabe 02b1 063f 2a38 0abf
000003b0: 641e 3d3f 9164 53bd f37d 6f3b 4aa3 e73b
000003c0: 8758 e5be 1b76 6ebe 6d43 2dbf db8d 383f
000003d0: d816 8d3d c99d c43e 473a 633e 793d 8fbe
000003e0: 1025 a7be bcf5 123d 3a55 a73e d82e a93e
000003f0: 9908 8abe 7b60 d83d 3c4d f0bd f6ce 8d3e
-0.09439671 0.06839613 -0.005181061 0.013140645 0.1803387 -0.27379882 0.05428486 -0.018252343
0.090758756 0.048998892 0.11961732 -0.25643158 -0.0035102216 0.048470933 0.049462095 -0.26411727
-0.028842222 0.07065439 0.13397451 0.19783302 -0.2876405 -0.11627408 0.15293685 0.29161218
0.13255689 0.20148776 0.20188484 0.2129354 -0.017566174 0.29723552 -0.016462924 0.18304598
-0.30547717 -0.12737809 0.26896486 0.13637263 -0.014526959 -0.04749163 0.101418406 0.039706543
-0.20084444 -0.0386188 -0.04850871 -0.11810844 -0.030511357 -0.04586074 -0.07934441 -0.0050487504
-0.117661096 0.005576185 -0.2242004 0.01149608 -0.010169235 -0.27479374 0.015685778 0.049771298
-0.022715632 -0.10080116 -0.051993664 0.27730337 0.082575165 0.18312338 0.14785074 -0.012989035
0.15805878 0.21284446 0.31101614 0.01788542 -0.38780886 0.09058513 0.025079047 -0.25735444
-0.1767956 0.112258635 0.30253038 0.10177302 -0.13197652 0.26905763 -0.20342484 -0.3141223
-0.17174205 0.31678873 -0.060343508 -0.026374519 -0.1435774 -0.013051452 0.033489805 0.06692166
-0.085026085 0.18943429 -0.23958874 -0.06998823 0.17872506 -0.12096187 0.24588902 -0.05532665
0.2815737 0.18024905 -0.055869557 0.15901998 -0.032976057 0.095440716 0.17394462 0.036861576
0.0029934498 -0.011088084 0.047407072 0.1471632 -0.081674986 -0.077153146 0.014478998 -0.014834288
0.016793812 0.16661409 -0.1886154 0.0020801316 0.07838552 -0.031416956 -0.2129479 0.1173886
-0.10857195 -0.0015324465 0.055250335 -0.01729991 0.14787067 -0.028218627 0.22324143 -0.081235975
-0.24828523 0.14055184 0.001964397 -0.08926653 0.12734373 0.8582124 0.6434416 -0.014947327
0.36166215 0.37345642 -0.38526952 -0.3208253 0.008514689 0.5587964 -0.022027198 -0.062559515
-0.017558469 -0.47693008 0.27562752 -0.11891477 0.11584765 -0.013907958 0.19134907 0.15758042
0.37280908 0.3723156 -0.7019502 -0.32822004 0.028659498 -0.20981418 -0.014599961 0.042741727
0.004209642 0.36261657 0.15612803 0.18460979 -0.12986869 0.28758734 -0.049692918 0.27935377
-0.14643708 -0.08202446 0.7150339 0.66676235 0.038286135 0.49310264 0.35881308 -0.0089496635
-0.40458423 -0.009386674 0.0057427967 -0.20745416 0.24028066 0.0015361788 -0.027907735 -0.036873955
-0.3388372 -0.18316077 -0.044144522 -0.049979184 -0.07474158 0.2093102 0.6510429 0.4130409
-0.51605886 -0.06633497 0.6035889 0.5310735 0.45483992 0.59920317 0.68542725 0.1152888
-0.6694456 0.13201655 -0.31627974 0.28787246 0.07425493 0.12018394 0.037909336 0.29543778
0.122411035 0.016572623 0.79197955 0.61540604 0.011524746 -0.0018311933 0.015349848 -0.12339621
0.2873095 0.42293492 -0.45017552 -0.22537723 0.28827643 0.47266752 -0.0236769 0.590719
-0.07856404 -0.2931412 -0.43637645 0.09628696 -0.14314432 0.7003135 -0.36566478 -0.22476964
-0.20657845 -0.48995522 0.5261384 -0.5399195 0.738745 -0.05160958 0.0036543577 0.007069026
-0.44794104 -0.23287241 -0.6768101 0.72091454 0.06889123 0.3840163 0.221902 -0.27976587
-0.32645464 0.03587888 0.3268221 0.3304355 -0.26959684 0.10565277 -0.11733481 0.2769696

fc3.bias f4 [2]
00000000: d734 033d 1c00 bf3d
0.032032814 0.09326193
