models/checkpoint_actor_0.pth (torch_old, 183836 bytes, 6 tensors)

fc1.weight f4 [256, 48]
0	0x3e5554f2	0.20833185
1	0xbf2a0813	-0.6641857
2	0x3dacd96a	0.08439906
3	0x3e817ba2	0.25289637
4	0x3dae9e3d	0.08526275
5	0x3d855245	0.06509832
6	0x3db733fc	0.08945462
7	0x3e9ccb94	0.30624068
8	0x3e7e6e31	0.24846722
9	0xbef22ac9	-0.47298267
10	0xbddf44c4	-0.10901788
11	0x3e7ab537	0.2448319
12	0xbec67d96	-0.3876769
13	0x3e891918	0.26776958
14	0xbd414f37	-0.047194686
15	0x3eabceaa	0.3355611
16	0x3eba3c9c	0.36374366
17	0xbd21c6cc	-0.039496228
18	0xbe8c9313	-0.2745596
19	0x3f1cbf24	0.6122916
20	0xbf1447c9	-0.57922035
21	0x3e956f61	0.29186538
22	0xbe71aab1	-0.2360027
23	0x3f2eb168	0.6823945
24	0x3dfc47d1	0.123183854
25	0x3e6a6d93	0.22893362
26	0xbe84a27c	-0.25905216
27	0x3e5f561f	0.21810196
28	0xbdb35db3	-0.08758106
29	0x3c47e29b	0.012200023
30	0xbe283205	-0.16425331
31	0x3e64fac1	0.2236128
32	0x3e183610	0.14864373
33	0x3e139351	0.14411665
34	0x3de68948	0.11256653
35	0x3d88b4b2	0.0667509
36	0x3ebc47e2	0.36773592
37	0x3e89fc31	0.2695022
38	0x3da3427a	0.07971664
39	0x3de90ae5	0.11379031
40	0x3e8eab42	0.27865034
41	0x3e2751e0	0.16339827
42	0x3e2aea04	0.16690832
43	0xbc4bd7a1	-0.012441547
44	0x3f16a0b1	0.58838946
45	0x3e97ff29	0.2968686
46	0x3e5aafaa	0.21356073
47	0x3ca26704	0.019824512
48	0x3d5356aa	0.05159632
49	0x3f7c9124	0.98658967
50	0x3cbd2122	0.023087088
51	0xbea98ee7	-0.33116838
52	0x3be39f34	0.0069464687
53	0xbe7726b8	-0.24135864
54	0x3d659b00	0.056056023
55	0xbe9d534d	-0.30727616
56	0x3dfe70d8	0.12423867
57	0x3f53c6ad	0.8272503
58	0x3d4e28b1	0.050331775
59	0xbf054466	-0.5205749
60	0x3e147734	0.14498597
61	0xbe36124a	-0.17780414
62	0x3e0edf26	0.13952312
63	0xbef69ee9	-0.48168114
64	0x3dc129cb	0.094317995
65	0x3f201d92	0.6254512
66	0x3e0942d2	0.13404396
67	0xbefe838e	-0.49709743
68	0x3e8d8125	0.27637592
69	0xbe877724	-0.26458085
70	0x3df50c58	0.11965245
71	0xbf0abb8b	-0.5419242
72	0x3e8dc287	0.27687475
73	0xbdfb756c	-0.12278256
74	0xbd368bd9	-0.044566963
75	0x3ebe775f	0.37200448
76	0xbd5eceab	-0.054396313
77	0xbe7ca60d	-0.24672718
78	0xbd4669a3	-0.048440587
79	0x3ea51f35	0.32250372
80	0x3e8aa714	0.27080595
81	0xbe0d1720	-0.13778353
82	0xbe681a68	-0.22666323
83	0x3f2fe92c	0.6871517
84	0xbe19adcf	-0.15007709
85	0xbe926b53	-0.28597507
86	0xbe81cff8	-0.2535398
87	0x3f1f20a4	0.6215918
88	0x3e9d10cc	0.30676877
89	0x3cdca426	0.02693374
90	0x3e920436	0.28518838
91	0x3f2fc535	0.6866029
92	0xbec25f25	-0.37963215
93	0xbe7592c4	-0.23981768
94	0x3e5b88ad	0.21438856
95	0x3f39f3a9	0.7263742
96	0x3e2a451a	0.16627923
97	0x3e66bb95	0.22532494
98	0xbe2ea39e	-0.17054603
99	0x3e133817	0.14376865
100	0x3e1b102c	0.15142888
101	0xbc0d64a0	-0.008629948
102	0xbe4b1ad8	-0.19834459
103	0x3e724402	0.23658755
104	0x3de5524b	0.11197337
105	0x3e03e09e	0.12878653
106	0xbdf0f5c6	-0.117656276
107	0x3c817038	0.01580058
108	0xbc291c9e	-0.010321764
109	0x3d52b8fb	0.051445942
110	0xbe17f014	-0.14837676
111	0xbd87b5be	-0.066264614
112	0x3dc1809c	0.094483584
113	0x3e8a289f	0.26984116
114	0xbe3dd4eb	-0.18538253
115	0xbc3a06cd	-0.0113541605
116	0xbdb019f6	-0.08598702
117	0xbd8dbd56	-0.069208786
118	0xbe4de887	-0.20108233
119	0x3b62e186	0.0034619286
120	0x3e1ab9e2	0.15109971
121	0x3ea047f6	0.31304902
122	0xbe1cd9c6	-0.15317449
123	0xbe49ffbb	-0.1972646
124	0xbe3f7e22	-0.1870046
125	0xbc1833e0	-0.009289712
126	0xbdae1dd0	-0.0850178
127	0xbe61fc73	-0.22068958
128	0x3e2de1bd	0.16980644
129	0x3e43561f	0.19075821
130	0x3e99d700	0.30046844
131	0xbf1a9f5e	-0.60399425
132	0xbd1055d3	-0.0352381
133	0x3d8bd954	0.068285614
134	0x3eb977b5	0.36224142
135	0xbf33d05c	-0.70239806
136	0x3e687007	0.22698985
137	0xbd177817	-0.03697976
138	0xbe1c5b4f	-0.15269206
139	0xbf649bbb	-0.89300126
140	0x3d900574	0.0703229
141	0xbdd35cfd	-0.103204705
142	0xbd3cd529	-0.046101723
143	0xbf6cbc47	-0.9247479
144	0xbc0ef2a1	-0.008724839
145	0xbf559c0c	-0.83441234
146	0xbe9fb470	-0.3119235
147	0xbf15fff8	-0.585937
148	0x3e00d14f	0.12579845
149	0xbdc5b2cd	-0.09653244
150	0xbe87422c	-0.26417673
151	0xbf26cf48	-0.65160036
152	0xbdcfee88	-0.10152918
153	0xbf82994f	-1.0203036
154	0xbdedc5be	-0.11609982
155	0xbd644410	-0.055728972
156	0xbdc777fc	-0.09739682
157	0x3df6f077	0.12057584
158	0xbe0ddbea	-0.13853422
159	0xbd074e13	-0.03303344
160	0xbb6b9265	-0.0035945412
161	0xbf6d1cdd	-0.92622167
162	0xbde09513	-0.10965934
163	0xbe0db5a1	-0.13838817
164	0x3c0d9d3b	0.008643444
165	0x3de2980f	0.11064159
166	0xbe50a5cc	-0.20375746
167	0xbdf0741a	-0.117408946
168	0x3e77918e	0.24176618
169	0xbe10f8f4	-0.14157468
170	0xbe220d5a	-0.15825406
171	0xbdd41532	-0.10355605
172	0xbe6590f6	-0.2241858
173	0xbe09936e	-0.13435146
174	0xbe05e935	-0.13077243
175	0xbdd99e66	-0.10625915
176	0x3e2dfc5c	0.16990799
177	0xbeb20ac8	-0.3477385
178	0xbda8e0f2	-0.0824603
179	0xbe0fab25	-0.1403013
180	0x3e02f10f	0.12787269
181	0x3d9bbe27	0.07604628
182	0xbd45181d	-0.0481187
183	0xbe528536	-0.20558628
184	0x3e0c6c3d	0.13713165
185	0xbec495b9	-0.3839548
186	0xbe28937a	-0.16462508
187	0xbef6c890	-0.48199892
188	0x3d4f69be	0.050637953
189	0x3e62d34a	0.22150913
190	0xbe7ea1c0	-0.2486639
191	0xbefd4000	-0.4946289
192	0xbd96e6fb	-0.07368275
193	0xbf7c93a4	-0.9866278
194	0xbd23f91f	-0.040032502
195	0xbe363456	-0.17793402
196	0x4018110a	2.37604
197	0x3e3749ec	0.17899293
198	0x3cdac1a7	0.026703669
199	0xbe50e218	-0.20398748
200	0x3d7dbee7	0.061949637
201	0xbf7824ad	-0.9693096
202	0xbd0d1fd1	-0.03445417
203	0xbdc3aadc	-0.09554073
204	0x3f8a52cc	1.0806518
205	0x3e9077df	0.28216454
206	0xbdd02b99	-0.101645656
207	0xbd618f69	-0.055068407
208	0x3e0826c0	0.13296032
209	0xbf3c56a9	-0.7356973
210	0xbd0cc8b1	-0.03437108
211	0xbc63d9bc	-0.013906892
212	0xbe492e29	-0.19646515
213	0x3e443690	0.19161439
214	0x3c03ca19	0.008043789
215	0xbda40c09	-0.08010108
216	0x3d38be99	0.045103643
217	0x3d97c1ae	0.07409988
218	0x3c902f29	0.017600613
219	0xbd2adab4	-0.041712478
220	0xc01c9609	-2.4466574
221	0x3e5d2a9c	0.21598285
222	0x3d9de83b	0.0771031
223	0x3da0f254	0.078587204
224	0x3c79768a	0.015226016
225	0x3d01d2ef	0.031695303
226	0xbd678605	-0.056524295
227	0xbbda8874	-0.0066690985
228	0xbf8b2d3c	-1.087318
229	0x3e54ee6c	0.20794076
230	0xbb1ee7ce	-0.0024247053
231	0xbd8cb344	-0.0687013
232	0x3d59e0bc	0.05319284
233	0x3ecdf678	0.40227103
234	0x3d39baa8	0.045344025
235	0x3efa8ab3	0.48933944
236	0x3e824cb6	0.2544915
237	0x3e2a1738	0.1661042
238	0x3ddc5d5d	0.10759995
239	0x3edf1246	0.4356863
240	0x3e72d58e	0.23714277
241	0xbe135cdd	-0.14390893
242	0xbd3fd295	-0.046831686
243	0x3dbe3869	0.09288103
244	0x3e6fa539	0.23402871
245	0xbec87de4	-0.39158547
246	0xbcf300ed	-0.029663527
247	0x3dbb36dd	0.09141324
248	0x3e72ca67	0.23710023
249	0xbe370cb9	-0.17875947
250	0xbdb233d3	-0.08701291
251	0xbeb0d8cd	-0.34540406
252	0x3e8e0a1b	0.27742085
253	0xbe5a60c3	-0.21325974
254	0xbddc05c1	-0.10743285
255	0xbeb2f11b	-0.34949574

fc1.bias f4 [256]
0	0xbef252f1	-0.47328904
1	0xbe45b5ed	-0.1930768
2	0xbe51ff3b	-0.20507519
3	0xbe7b606e	-0.24548504
4	0xbe7963e7	-0.24354516
5	0xbea00d2a	-0.31260043
6	0xbebe2e3b	-0.37144646
7	0xbe502816	-0.20327792
8	0xbe31933f	-0.17341326
9	0xbdb36a90	-0.087605596
10	0xbf2ca486	-0.6743854
11	0xbe1d1e97	-0.153437
12	0x3da20c50	0.07912505
13	0xbda36c8e	-0.079796895
14	0xbf000bb7	-0.50017875
15	0xbda51c29	-0.08062012
16	0xbe192c4c	-0.14958304
17	0xbec337d3	-0.38128528
18	0xbed8756a	-0.4227708
19	0xbe9fdb4a	-0.31221992
20	0xbed5f65a	-0.41789514
21	0xbdf77fc3	-0.120849155
22	0xbe9cd0f3	-0.30628166
23	0xbec915fc	-0.39274585
24	0xbef62cda	-0.48081094
25	0xbed74e8b	-0.4205211
26	0xbe786c16	-0.24259982
27	0xbeb882ef	-0.36037394
28	0x3f01ccfe	0.5070342
29	0xbe91834f	-0.28420493
30	0xbe9c6b4d	-0.30550614
31	0xbe8760e6	-0.26441115
32	0x3e9b1a36	0.30293435
33	0x3eac90d4	0.33704245
34	0xbdde340e	-0.108497724
35	0xbf0755b3	-0.5286514
36	0xbf0eb383	-0.55742663
37	0xbec50207	-0.3847811
38	0xbf06297c	-0.5240705
39	0xbecde923	-0.40216932
40	0xbed11a4d	-0.40840378
41	0xbd0f21d9	-0.03494439
42	0x3eab908e	0.33508724
43	0xbe302488	-0.17201436
44	0x3c989e0e	0.018630054
45	0xbe34c5ed	-0.17653628
46	0xbd81601e	-0.06317161
47	0xbeac9cbe	-0.33713335
48	0xbbde9339	-0.0067924527
49	0xbe49ab2f	-0.19694208
50	0x3f1ab8b8	0.6043811
51	0x3e0c999c	0.13730472
52	0x3ebb7ae8	0.36617208
53	0xbeb5c500	-0.35501862
54	0xbe9b1c91	-0.30295232
55	0xbd9c30eb	-0.07626518
56	0xbe1068b7	-0.14102446
57	0x3e6c559a	0.2307953
58	0xbdac479f	-0.08412098
59	0xbf0933c6	-0.53594625
60	0x3c08006f	0.008300885
61	0x3d447e99	0.047972295
62	0xbd82a8c2	-0.06379844
63	0x3ed6e6ef	0.41973063
64	0x3f0d8775	0.55284816
65	0x3e4c92fd	0.19977947
66	0xbe98c1fd	-0.298355
67	0xbe974a8d	-0.29549065
68	0xbe8a5ebc	-0.27025402
69	0xbf01e323	-0.5073721
70	0x3ec9ef75	0.39440504
71	0xbc6ef960	-0.014585823
72	0x3e3b4fc4	0.18292147
73	0x3db49496	0.08817403
74	0x3e300c39	0.17192163
75	0xbe08d09f	-0.13360833
76	0xbef5c44b	-0.48001322
77	0xbef10116	-0.4707114
78	0xbe465299	-0.19367446
79	0xbee8118a	-0.4532588
80	0xbecf2b0e	-0.40462536
81	0xbe75cce0	-0.24003935
82	0xbcca2898	-0.02467756
83	0xbea0f9e1	-0.31440642
84	0xbe3dff69	-0.18554462
85	0xbefade4a	-0.48997718
86	0xbf4b6fa1	-0.7946721
87	0x3d4b0175	0.049561936
88	0x3d0ed3d6	0.03486999
89	0x3e25b544	0.16182429
90	0x3bcde020	0.0062828213
91	0xbe735c1f	-0.2376561
92	0x3de8c1a0	0.11365056
93	0x3eab96c0	0.3351345
94	0x3e822854	0.25421393
95	0xbdee67b0	-0.116408706
96	0xbe020991	-0.12698962
97	0x3dbcb70d	0.09214602
98	0xbe8bfa60	-0.27339458
99	0x3e959213	0.29213008
100	0x3cd14d30	0.025549501
101	0xbed5ad36	-0.41733712
102	0xbc2cb914	-0.010542173
103	0x3ddbcf6a	0.107329205
104	0xbe8d8c77	-0.2764623
105	0xbec13070	-0.37732267
106	0xbedc381e	-0.43011564
107	0xbefe0362	-0.49611956
108	0x3bbf8b94	0.0058454964
109	0xbf017318	-0.50566244
110	0xbee5a00c	-0.4484867
111	0xbe84fbc7	-0.2597334
112	0x3dd42d34	0.10360184
113	0xbe25bc30	-0.16185069
114	0xbecc305e	-0.3988065
115	0xbf025fea	-0.50927603
116	0x3d441fd1	0.047881905
117	0x3ea8a1bb	0.3293589
118	0x3da9939a	0.08280106
119	0x3d49b5ae	0.04924553
120	0xbe814bc2	-0.2525311
121	0xbe8a17d6	-0.2697131
122	0xbe8e78fd	-0.27826682
123	0xbecb617e	-0.39722818
124	0x3cf8a2d0	0.030351073
125	0xbe75b260	-0.23993826
126	0xbd786342	-0.060641535
127	0x3ed13002	0.4085694
128	0xbdf6113f	-0.12015008
129	0xbea7ea5f	-0.32795998
130	0xbeb863ac	-0.36013544
131	0xbf0e7a65	-0.5565551
132	0xbd84c2bf	-0.06482457
133	0xbee4dbe7	-0.44699022
134	0xbea3b1aa	-0.31971484
135	0x3ec1439d	0.37746897
136	0xbe8dfad5	-0.27730432
137	0xbd3ceeff	-0.046126362
138	0xbe77421a	-0.2414631
139	0xbe669b19	-0.22520103
140	0x3bc00d2a	0.0058609443
141	0xbeb2a5eb	-0.3489221
142	0xbebebdd5	-0.37254205
143	0xbebfb0ad	-0.3743948
144	0x3e316749	0.17324556
145	0x3d452faa	0.04814116
146	0xbe8d4965	-0.27595058
147	0x3e8545dc	0.2602986
148	0xbe73a180	-0.23792076
149	0xbeef5d6b	-0.4675096
150	0xbe8607fe	-0.26177973
151	0xbef34a2c	-0.47517526
152	0xbeb3bf38	-0.35106826
153	0xbe98f170	-0.29871702
154	0xbeb5a113	-0.35474452
155	0xbec14963	-0.37751302
156	0xbe36d1a1	-0.17853405
157	0xbeabf9d2	-0.33589035
158	0xbe4d6ae7	-0.20060311
159	0xbf09a97c	-0.5377424
160	0xbf0d06f1	-0.55088717
161	0xbdd0c3ad	-0.10193572
162	0x3e2c8039	0.16845788
163	0xbe82e519	-0.25565413
164	0xbef0fd53	-0.4706827
165	0xbe5b3554	-0.21407062
166	0xbef5cd43	-0.48008165
167	0xbe60072a	-0.21877733
168	0xbe65125a	-0.22370282
169	0xbeed78fc	-0.46381366
170	0xbe051805	-0.12997444
171	0xbe676be7	-0.22599755
172	0xbe26278b	-0.16226022
173	0xbe953388	-0.29140878
174	0xbda0b157	-0.07846325
175	0xbee72157	-0.45142624
176	0xbe7bc130	-0.24585414
177	0xbecbc3b3	-0.39797744
178	0xbeabf2ec	-0.33583772
179	0xbe641936	-0.22275242
180	0xbec67863	-0.38763723
181	0x3f42ab4b	0.7604262
182	0xbd8490b6	-0.06472914
183	0xbea12e4e	-0.3148064
184	0xbe373ee2	-0.17895082
185	0xbe1c1d06	-0.15245447
186	0xbe6ccbec	-0.23124665
187	0xbee2d023	-0.4429942
188	0xbd28cd14	-0.041211203
189	0xbee05bfe	-0.43820184
190	0x3cb92183	0.022598987
191	0x3e31ccc4	0.17363268
192	0xbe5869d8	-0.21134126
193	0x3da9787b	0.08274933
194	0x3e0266cf	0.12734531
195	0xbe9093f2	-0.28237873
196	0xbe1da89a	-0.15396348
197	0xbf1e21d0	-0.61770344
198	0xbdb6a4d2	-0.08918156
199	0xbf005fc0	-0.501461
200	0xbe8ea588	-0.27860665
201	0xbeb3159c	-0.34977424
202	0xbeb89957	-0.3605449
203	0xbf18806e	-0.5957097
204	0xbe52e080	-0.20593452
205	0xbee241b3	-0.4419075
206	0xbeacbaca	-0.3373626
207	0xbe7ae829	-0.24502625
208	0xbed8c880	-0.4234047
209	0xbe596de9	-0.21233334
210	0xbe9ff208	-0.31239343
211	0xbe7748d3	-0.24148874
212	0x3c0eb118	0.008709215
213	0xbc9e7267	-0.01934166
214	0xbec5b8da	-0.38617593
215	0x3e306002	0.17224124
216	0xbdb85f7d	-0.09002588
217	0xbe2d09d3	-0.16898279
218	0xbf3d69d5	-0.7398961
219	0x3edacf71	0.4273639
220	0xbe3c72f3	-0.18403225
221	0xbeb33f55	-0.35009256
222	0xbeb43e71	-0.3520389
223	0xbe4f5dbe	-0.20250604
224	0x3e325969	0.1741692
225	0xbeb55595	-0.35416856
226	0xbeebbd5d	-0.4604291
227	0xbe9acca8	-0.30234265
228	0xbdfa6623	-0.12226512
229	0x3beef1f0	0.007292025
230	0xbecc3e0a	-0.39891082
231	0x3da236a8	0.07920581
232	0xbe3e8916	-0.18606982
233	0xbb78429d	-0.0037881501
234	0xbd794f11	-0.06086642
235	0xbec3bf9a	-0.38232118
236	0x3e83f09a	0.25769502
237	0x3eb27748	0.3485663
238	0xbea2951e	-0.31754392
239	0xbe8f9cce	-0.2804932
240	0x3d06c963	0.0329069
241	0xbf204d0a	-0.6261755
242	0xbe02b49e	-0.12764212
243	0xbf1df451	-0.6170092
244	0xbee16af4	-0.4402691
245	0xbde1bb16	-0.11022012
246	0xbe96aa27	-0.2942669
247	0xbea39309	-0.31948116
248	0xbf1176dd	-0.56821996
249	0xbcdfb316	-0.027307075
250	0xbe2a1667	-0.16610108
251	0xbf22a74c	-0.63536525
252	0xbea982bf	-0.33107564
253	0xbf12ff3c	-0.57420707
254	0xbdcd2186	-0.1001616
255	0xbf1ea98c	-0.6197746

fc2.weight f4 [128, 256]
0	0xbe9a1a14	-0.3009802
1	0x3cdf6dcc	0.027274035
2	0xbea756b2	-0.3268333
3	0xbc728f0d	-0.014804614
4	0xbd1d0753	-0.038337063
5	0xbed235df	-0.41056725
6	0x3e800c24	0.25009263
7	0xbc076ad0	-0.008265212
8	0xbf0707eb	-0.52746457
9	0x3cb17e48	0.02166666
10	0x3d637c4f	0.05553847
11	0x3e9c6207	0.3054354
12	0x3dec94b6	0.11551802
13	0xbe849ce0	-0.25900936
14	0x3e1b375b	0.15157835
15	0x3e08ae60	0.13347769
16	0x3db12251	0.086491235
17	0x3efbe131	0.49195245
18	0xbb223e68	-0.0024756435
19	0xbdcc5dcf	-0.0997883
20	0xbdf50cd3	-0.11965337
21	0x3e07c793	0.13259725
22	0x3e99c89f	0.30035874
23	0x3e94aac7	0.29036543
24	0xbe0ed5c2	-0.1394873
25	0x3c3a47a8	0.011369623
26	0xbe535b23	-0.20640235
27	0x3db4a659	0.08820791
28	0xbdf3ce49	-0.1190458
29	0x3e68c506	0.22731408
30	0xbd440d3f	-0.047864195
31	0xbe697dfe	-0.22801968
32	0xbe854ec2	-0.2603665
33	0x3cc3f6ab	0.023921331
34	0xbe2ffa0a	-0.17185226
35	0xbdc88e1d	-0.09792731
36	0xbe18d575	-0.14925177
37	0xbe06583f	-0.131196
38	0xbd38807e	-0.045044415
39	0xbe244a6f	-0.16044019
40	0x3e7ddb2d	0.2479064
41	0x3e263f49	0.16235079
42	0xbe595c95	-0.21226723
43	0x3bd746df	0.006569728
44	0xbea18d7a	-0.3155325
45	0xbdf2d5c2	-0.11857177
46	0xbdf3b466	-0.11899643
47	0xbe86a7fe	-0.26300043
48	0xbebc86fa	-0.3682173
49	0xbe94b0b1	-0.29041055
50	0xbe29ece7	-0.16594277
51	0xbce2da54	-0.027691998
52	0xbdbb51fc	-0.09146497
53	0xbea70bb8	-0.32626128
54	0x3eda3382	0.42617422
55	0xbefc68e9	-0.4929879
56	0xbc7a3719	-0.015271925
57	0xbea0939d	-0.3136262
58	0x3d87908f	0.06619369
59	0xbc5bbc99	-0.013411664
60	0x3e842729	0.25811127
61	0x3e0b0780	0.1357708
62	0xbe19ceaf	-0.1502025
63	0xbbe41c92	-0.0069614137
64	0x3b197a62	0.0023418893
65	0x3edbfa2e	0.4296431
66	0xbea9e0b4	-0.33179247
67	0xbccf4ec9	-0.025306122
68	0x3d2b20da	0.041779377
69	0xbebc5e82	-0.36790854
70	0xbcafc766	-0.021457385
71	0xbee53961	-0.4477034
72	0xbddafe8c	-0.10693082
73	0x3d834571	0.06409729
74	0xbd9c3f49	-0.07629258
75	0xbe0ba6ca	-0.13637844
76	0x3e2fb87d	0.1716022
77	0x3e617689	0.22017874
78	0x3ef7f079	0.48425654
79	0x3ea0f3a1	0.31435874
80	0xbea66002	-0.32495123
81	0xbd89e75d	-0.06733582
82	0xbe988a18	-0.29792857
83	0x3e48575b	0.19564573
84	0xbc47eea3	-0.0122028915
85	0xbeaf14dc	-0.34195602
86	0xbda754e3	-0.08170488
87	0x3eb6a236	0.35670632
88	0xbce9552d	-0.028482998
89	0x3e3172c5	0.17328937
90	0xbe97539c	-0.29555976
91	0x3c79db40	0.015250027
92	0xbd7960cc	-0.06088333
93	0xbebe2c88	-0.3714335
94	0x3e833260	0.2562437
95	0xbd0f9014	-0.035049513
96	0xbefbbe8a	-0.49168807
97	0xbd315c4f	-0.043300923
98	0x3cfd3bf4	0.030912377
99	0x3e893656	0.26799268
100	0xbe00f4db	-0.12593405
101	0x3d839ee3	0.064267896
102	0x3e2d61d6	0.16931853
103	0x3b04d8d7	0.0020270848
104	0x3cd41a4b	0.025891444
105	0x3eb352c7	0.35024092
106	0xbdc5ee14	-0.096645504
107	0xbe330b11	-0.1748469
108	0xbcc39fce	-0.023879912
109	0xbe2aed74	-0.16692144
110	0xbdd7a5f3	-0.10529699
111	0x3d47d923	0.048791062
112	0x3c50d387	0.012745745
113	0x3dd4419d	0.10364077
114	0xbe4aa8aa	-0.19790903
115	0xbe4f7222	-0.20258382
116	0xbe35de7f	-0.17760657
117	0xbe780b09	-0.2422296
118	0xbdfda30d	-0.12384615
119	0xbe5bba9f	-0.21457909
120	0xbec87fda	-0.39160043
121	0xbd39890e	-0.04529672
122	0xbe065d81	-0.13121606
123	0xbedfca49	-0.4370902
124	0x3ed5da18	0.41767955
125	0xbe7c325c	-0.24628586
126	0xbd5519b0	-0.05202645
127	0x3e5095b3	0.20369606
128	0xbe1d6a0f	-0.1537249
129	0x3e799004	0.24371344
130	0x3e0cc781	0.1374798
131	0x3d7018bb	0.058617335
132	0x3d7189a4	0.058969155
133	0xbe7de818	-0.24795568
134	0x3c9b013b	0.018921485
135	0x3ecfcbd7	0.40585205
136	0xbe397216	-0.18109927
137	0x3ede624d	0.43434373
138	0x3dea865c	0.11451408
139	0xbdb2847e	-0.08716677
140	0xbe031f40	-0.1280489
141	0xbb9f2094	-0.0048561785
142	0xbe91bc85	-0.2846414
143	0xbdbd4ae0	-0.09242797
144	0x3ec8f6c2	0.3925076
145	0x3d7e82bc	0.062136397
146	0x3dc87802	0.09788515
147	0xbe419d54	-0.18907672
148	0x3e8f8497	0.28030846
149	0x3dadcc7a	0.084862664
150	0xbd0ee561	-0.03488672
151	0x3ecc6d5d	0.39927188
152	0xbe8e6dc5	-0.27818123
153	0x3eec459b	0.46146855
154	0xbeb60759	-0.3555248
155	0xbd81cb2e	-0.063375816
156	0xbe88f322	-0.26747996
157	0xbe8c4351	-0.27395108
158	0xbdfae8db	-0.12251445
159	0x3e1dfc1f	0.15428208
160	0x3cb8e48f	0.022569923
161	0xbeab0465	-0.3340179
162	0x3e1c7e6c	0.15282601
163	0xbe7f650d	-0.24940892
164	0x3e1e99a8	0.15488303
165	0xbcfdded3	-0.03099004
166	0x3d94ee47	0.0727201
167	0xbe109264	-0.14118344
168	0xbea68167	-0.325206
169	0xbe4a6143	-0.19763665
170	0x3e597e20	0.21239519
171	0x3e039d85	0.12853058
172	0x3e02605e	0.12732074
173	0xbebdee26	-0.37095755
174	0x3df16e34	0.11788598
175	0xbd6da78d	-0.058021117
176	0x3e634b22	0.2219663
177	0xbe626cf8	-0.22111881
178	0xbed63f94	-0.4184538
179	0x3e32b39b	0.17451327
180	0x3cec3890	0.028835565
181	0xbe8a0c79	-0.2696264
182	0x3ce1ded1	0.027572067
183	0x3da02da9	0.07821209
184	0x3e0d5660	0.1380248
185	0x3e4f0e95	0.20220406
186	0xbdb9bfdd	-0.09069798
187	0x3e190c83	0.14946179
188	0x3dc832b5	0.097752966
189	0x3ed974ad	0.4247183
190	0xbdfa1d96	-0.12212674
191	0x3d219ce6	0.03945627
192	0xbdfe54a0	-0.12418485
193	0xbe24b04a	-0.16082874
194	0xbed40d3d	-0.4141635
195	0xbc41609b	-0.011802818
196	0x3bd28d8c	0.006425565
197	0x3d91af07	0.07113462
198	0x3e9754e9	0.2955697
199	0x3e4d74ea	0.2006413
200	0x3e3c6d4b	0.18401067
201	0xbe7c8d1e	-0.24663207
202	0xbe22eeb1	-0.15911366
203	0xbe06c280	-0.13160133
204	0x3f06fbf1	0.5272818
205	0xbefe8c3f	-0.49716374
206	0x3ea8cc41	0.32968333
207	0xbe8b1b6e	-0.27169365
208	0xbec97a4e	-0.39351124
209	0x3dabe7cb	0.083938204
210	0xbef5d63c	-0.4801501
211	0x3f067e80	0.52536774
212	0xbd971282	-0.07376577
213	0xbeab89b0	-0.33503485
214	0xbb8f7941	-0.0043784683
215	0xbe3ecebb	-0.18633549
216	0xbd587afd	-0.052851666
217	0x3edf6fe1	0.43640044
218	0xbdf68cb9	-0.120385595
219	0xbe4d7b88	-0.20066655
220	0x3e897126	0.26844138
221	0xbb804094	-0.0039139483
222	0xbe309f9d	-0.17248388
223	0xbd919ecb	-0.071103655
224	0x3db19552	0.08671059
225	0x3dba8ebb	0.09109255
226	0xbd1ef9bf	-0.038812395
227	0x3dbd7937	0.092516355
228	0xbe5ae767	-0.21377335
229	0xbe9ad295	-0.30238786
230	0x3dd6a699	0.10480995
231	0x3e4e7a5d	0.20163865
232	0x3e8a3b4e	0.2699837
233	0xbef90d00	-0.4864273
234	0x3eb7562b	0.35807928
235	0xbda7e04e	-0.081970796
236	0xbe5dee10	-0.21672845
237	0x3e0ad1da	0.13556615
238	0xbe17d83e	-0.14828584
239	0x3ee1580e	0.44012493
240	0xbe3e44bc	-0.18580908
241	0x3d9d679c	0.076857775
242	0xbedfed8f	-0.4373593
243	0xbf0250dd	-0.5090464
244	0xbe443fc1	-0.19164945
245	0xbc9ec810	-0.019382507
246	0x3e16c711	0.14724375
247	0xbe07e3be	-0.1327047
248	0xbece25ce	-0.40263218
249	0x3d98c1ed	0.074588634
250	0x3ed38722	0.41314036
251	0x3bc4cbd8	0.0060057454
252	0xbe868320	-0.26271915
253	0x3c9790d6	0.01850168
254	0xbe77799f	-0.24167489
255	0x3e3da9b4	0.18521768

fc2.bias f4 [128]
0	0xbec765b3	-0.38944778
1	0x3e24527a	0.16047087
2	0xbda4b413	-0.08042159
3	0xbe057255	-0.13031895
4	0xbed16214	-0.4089514
5	0xbed3af42	-0.4134465
6	0xbdbf2a78	-0.09334272
7	0xbdf5f1a3	-0.12008979
8	0x3db89dae	0.0901445
9	0xbe1aa659	-0.15102519
10	0xbe74ae16	-0.23894534
11	0xbe392df1	-0.18083932
12	0xbee9bed0	-0.4565339
13	0x3e2ec806	0.1706849
14	0x3db2d377	0.0873174
15	0xbea3523d	-0.3189868
16	0xbe49fd91	-0.19725634
17	0x3e140f37	0.14458929
18	0xbefeea95	-0.49788347
19	0xbd46b582	-0.048512943
20	0x3df16139	0.11786122
21	0xbe8bc53f	-0.27298924
22	0xbd964bb3	-0.07338657
23	0x3e4d1f2d	0.20031424
24	0x3ca777d2	0.020442877
25	0xbe4bc129	-0.19897904
26	0x3e47d800	0.19515991
27	0xbe20d9d0	-0.15708089
28	0xbdde3cfa	-0.10851474
29	0xbeaac08d	-0.3335003
30	0xbf051aa9	-0.51993805
31	0xbd50c8ce	-0.050972752
32	0xbe90c191	-0.2827268
33	0xbe6b6e22	-0.22991231
34	0xbe5a2a9e	-0.2130532
35	0xbedcb616	-0.4310767
36	0xbe20b121	-0.1569257
37	0xbce2f0a7	-0.027702643
38	0xbe6a6c85	-0.2289296
39	0x3c4c193f	0.012457191
40	0xbe0b30a5	-0.13592775
41	0x3d015abb	0.031580668
42	0x3e84615a	0.25855523
43	0xbefa2ef8	-0.4886396
44	0xbe96cabf	-0.29451558
45	0xbea620df	-0.32446954
46	0x3d80f2c9	0.062963076
47	0xbe4c6ed7	-0.19964157
48	0x3bfb7031	0.0076732864
49	0x3e87761f	0.26457307
50	0xbd0593a3	-0.0326115
51	0xbd320c7d	-0.04346894
52	0xbe77acdb	-0.24187033
53	0x3b97dec1	0.0046347086
54	0xbe3ee296	-0.18641123
55	0xbd9cc80e	-0.07655345
56	0xbe543b97	-0.20725857
57	0xbe998a24	-0.29988205
58	0xbea265f9	-0.31718424
59	0xbe2ac4eb	-0.1667668
60	0x3d75ced1	0.06001169
61	0xbe8d5f5d	-0.2761182
62	0xbed58a23	-0.41706952
63	0x3c7f0c70	0.01556693
64	0xbe03c31b	-0.12867396
65	0xbab53926	-0.0013826236
66	0x3e702548	0.23451722
67	0xbe7c17f6	-0.24618515
68	0x3e015a8f	0.12632202
69	0xbdb0b1bb	-0.086276494
70	0x3d9d7d4e	0.076899156
71	0x3dab6e11	0.08370603
72	0xbd964407	-0.07337194
73	0xbe0f4d3e	-0.1399431
74	0x3cfd88b0	0.030948967
75	0x3d90ed79	0.07076544
76	0x3db19ef5	0.08672897
77	0xbeb55389	-0.35415295
78	0xbe26b493	-0.16279821
79	0xbd013f28	-0.03155437
80	0x3d982cec	0.07430443
81	0xbd336cdd	-0.043804992
82	0xbddc033e	-0.10742806
83	0xbddba76d	-0.10725293
84	0xbe0dc6a9	-0.13845314
85	0x3e40f606	0.1884385
86	0xbdc9ff04	-0.098630935
87	0xbbcb9b7f	-0.006213605
88	0xbc17b67f	-0.009259819
89	0x3d9e50b3	0.07730236
90	0xbe25b286	-0.16181383
91	0x3d926524	0.07148197
92	0xbd96efba	-0.07369943
93	0x3e0d52be	0.13801095
94	0x3c8652e2	0.016396943
95	0xbd9496f6	-0.07255356
96	0xbf2076ac	-0.6268108
97	0xbeb0a01f	-0.34497163
98	0xbdc3bbbf	-0.09557294
99	0x3e59da92	0.21274784
100	0xbe6a4a16	-0.22879824
101	0x3d6f6c77	0.05845305
102	0x3ea40750	0.3203683
103	0xbec8f52d	-0.39249554
104	0x3cebfe18	0.028807685
105	0xbe696c57	-0.22795235
106	0x3dc5299c	0.09627077
107	0xbef74ddb	-0.48301587
108	0xbe852602	-0.2600556
109	0xbeab3c0d	-0.33444253
110	0xbe32d38c	-0.17463511
111	0xbe59e78b	-0.21279733
112	0xbcea763c	-0.028620832
113	0xbef0b62d	-0.4701399
114	0xbe1096aa	-0.14119974
115	0xbe0116a6	-0.12606296
116	0xbe02dbb5	-0.12779124
117	0xbe276758	-0.16348016
118	0xbc347468	-0.011014082
119	0xbcf3195a	-0.029675175
120	0xbe099d2e	-0.13438866
121	0xbe0354c0	-0.12825298
122	0xbe00c4db	-0.12575094
123	0xbeef10ab	-0.46692404
124	0x3daa7777	0.08323567
125	0xbd7214ee	-0.05910199
126	0xbd01ee6f	-0.03172153
127	0xbe231197	-0.15924679

fc3.weight f4 [2, 128]
0	0xbe22c972	-0.15897158
1	0xbdff2248	-0.124577105
2	0x3d41544d	0.047199536
3	0xbc814065	-0.015777776
4	0xbd66728b	-0.05626158
5	0xbdb62d68	-0.08895379
6	0xbd76d6cc	-0.06026344
7	0xbb844bc6	-0.004037353
8	0xbe8f947f	-0.2804298
9	0xbc967cd7	-0.018370075
10	0x3b6605d5	0.003509869
11	0x3d3bd35e	0.045855872
12	0xbe6124b5	-0.21986659
13	0xbca5a52a	-0.020220358
14	0x3ccbf894	0.024898805
15	0xbed3ec07	-0.41391012
16	0x3da1b213	0.07895293
17	0x3e56fbb6	0.20994458
18	0xbd3f724c	-0.04673986
19	0xbc3c92ae	-0.011509581
20	0x3c9bddb9	0.019026624
21	0xbd8d1853	-0.06889405
22	0x3d1f4091	0.038879935
23	0x3bd3c4d2	0.006462672
24	0x3d952ef4	0.07284346
25	0xbc984cd4	-0.018591322
26	0x3e0fed42	0.1405535
27	0xbcc58496	-0.024111073
28	0x3cdd0ebe	0.026984569
29	0xb8eec35b	-0.00011385112
30	0x3dc6f0e2	0.097139135
31	0xbe015793	-0.12631063
32	0xbdacb0c1	-0.08432151
33	0x3c28214b	0.010261844
34	0x3dcc4659	0.09974355
35	0xbde6c1eb	-0.11267456
36	0xbe0efb25	-0.13962992
37	0xbea791d7	-0.32728454
38	0xbd80a4f1	-0.0628146
39	0x3e05cf23	0.13067298
40	0x3cb851ec	0.0225
41	0x3c8e0643	0.01733697
42	0x3e68e222	0.22742513
43	0xbe0155d5	-0.12630399
44	0x3d05223c	0.03250335
45	0xbdf1dd42	-0.1180978
46	0xbe2fc404	-0.17164618
47	0x3e3e9f97	0.18615566
48	0x3cb17b90	0.021665365
49	0xbdaeaf81	-0.085295685
50	0xbc1259a5	-0.008932506
51	0x3b047263	0.0020209781
52	0x3e0bb658	0.13643777
53	0x3cebefff	0.028800962
54	0x3de7c42f	0.11316716
55	0x3e0384fb	0.12843697
56	0xb9e1ffa0	-0.000431058
57	0xbeb4847c	-0.35257328
58	0x3e2a9f31	0.16662289
59	0xbcb03f17	-0.021514459
60	0x3ea67be1	0.32516387
61	0x3d78611d	0.06063949
62	0xbe24d42e	-0.16096565
63	0x3e442a82	0.1915684
64	0x3cfb7487	0.030695213
65	0xbccb81a0	-0.024842083
66	0xbdd3fff0	-0.103515506
67	0xbd8a4478	-0.06751341
68	0x3e24ee5f	0.16106556
69	0x3e02e564	0.12782818
70	0xbe3d0ef2	-0.18462732
71	0x3dc70f19	0.097196765
72	0xbd045557	-0.03230795
73	0x3e95a8ff	0.29230496
74	0xbdb1b0b1	-0.08676279
75	0xbde35119	-0.110994525
76	0xbe5bdf18	-0.21471822
77	0xbd9a98c3	-0.07548668
78	0xbdf551f4	-0.11978522
79	0x3c43dabe	0.011954008
80	0xbecbd4c3	-0.39810762
81	0xbca57e28	-0.020201758
82	0x3c7320d4	0.01483937
83	0xbd3fefbc	-0.046859488
84	0xbd8a082a	-0.067398384
85	0x3ebc1778	0.36736655
86	0x3c3f0a63	0.011660191
87	0x3cd36c17	0.025808377
88	0x3bb01ed8	0.0053747706
89	0x3d0e171c	0.034690008
90	0x3c33c343	0.010971847
91	0x3d52e7f8	0.051490754
92	0xbd167eea	-0.03674213
93	0x3d202854	0.03910096
94	0xbd865f9a	-0.06561203
95	0x3dd999db	0.10625049
96	0xbe0be0aa	-0.13659921
97	0xbd6a7bef	-0.0572471
98	0xbe0dde23	-0.1385427
99	0xbdbcfac4	-0.09227517
100	0xbe4b5a54	-0.19858676
101	0x3e140cea	0.14458051
102	0x3d057007	0.03257754
103	0xbd0160d4	-0.031586483
104	0x3c4a1f6a	0.012336591
105	0x3db78c12	0.08962263
106	0xbd9b1309	-0.0757199
107	0xbea70ee4	-0.32628548
108	0xbe4dc8f0	-0.20096183
109	0xbc6865ac	-0.014184397
110	0x3c170dba	0.009219581
111	0x3e0d6513	0.13808088
112	0x3e5b56bd	0.21419807
113	0x3e2fbc83	0.17161755
114	0x3cd05367	0.025430394
115	0x3db1f60d	0.086895086
116	0x3e05577f	0.13021658
117	0xbea5b43f	-0.3236408
118	0x3d391a20	0.04519093
119	0xbaa0d428	-0.0012270259
120	0xbb003b61	-0.0019566643
121	0xbb8e9517	-0.004351269
122	0xbc0848a5	-0.008318101
123	0xbce2fd1d	-0.027708584
124	0x3e80501d	0.25061122
125	0xbba7cf62	-0.0051211575
126	0xbdf331c3	-0.11874726
127	0xbd8a0a6b	-0.06740268
128	0x3e212585	0.15736969
129	0x3ed56c73	0.41684303
130	0x3e796593	0.24355154
131	0xbf42ba73	-0.7606575
132	0xbf021b42	-0.5082284
133	0xbe142754	-0.14468127
134	0xbe39a390	-0.181288
135	0xbe616c43	-0.22013955
136	0xbd476fbe	-0.04869055
137	0x3e48c0bb	0.19604771
138	0x3e8b7811	0.2724004
139	0xbe48ceda	-0.19610158
140	0x3e6f6aba	0.23380557
141	0x3ee5748a	0.44815475
142	0x3ea24a28	0.31697202
143	0x3e0ad101	0.13556291
144	0x3ea1d06f	0.31604335
145	0x3f2220e1	0.6333142
146	0x3f046b06	0.51725805
147	0x3c4d7ec6	0.012542432
148	0x3e95a3b0	0.29226446
149	0x3e21a337	0.15784918
150	0xbec0f195	-0.37684312
151	0xbea4b9d0	-0.32173014
152	0xbd420932	-0.04737205
153	0x3ea53e98	0.32274318
154	0x3edbf7db	0.42962536
155	0x3f006ac3	0.50162905
156	0x3e9de01b	0.3083504
157	0x3ee72b39	0.45150164
158	0xbed54164	-0.41651452
159	0xbedbe7f9	-0.4295042
160	0xbf15ca27	-0.58511585
161	0x3e8dbbed	0.27682438
162	0x3d2b4f85	0.041823883
163	0x3d6b77d9	0.057487343
164	0x3de6199a	0.11235352
165	0x3ed58674	0.41704142
166	0xbeec3e31	-0.46141198
167	0x3ecb1e8b	0.3967174
168	0x3d2aa200	0.0416584
169	0x3e3acccc	0.18242186
170	0xbee67372	-0.45009953
171	0xbe9ac476	-0.30228013
172	0xbece9640	-0.40349007
173	0x3e2413b5	0.16023143
174	0x3df25b43	0.11833813
175	0xbec8bff4	-0.3920895
176	0x3eaa3598	0.33244014
177	0xbf3e0206	-0.7422184
178	0x3e885f9f	0.26635453
179	0x3cc1e053	0.023666536
180	0x3d18c448	0.037296563
181	0xbefccb5e	-0.49373907
182	0xbe310b6a	-0.1728951
183	0x3e39db09	0.18149962
184	0x3ea8dae1	0.3297949
185	0x3d395f03	0.045256626
186	0x3e09f6b1	0.13473012
187	0xbebffcbf	-0.37497517
188	0x3e0589ac	0.13040799
189	0x3e4540b3	0.19262962
190	0xbe97c3f9	-0.29641703
191	0xbe517e7b	-0.20458405
192	0x3d1963b2	0.037448592
193	0xbb3633f0	-0.0027801953
194	0x3f1c88b4	0.6114609
195	0xbe877ffe	-0.26464838
196	0xbd99ebee	-0.07515703
197	0xbe299049	-0.16558947
198	0x3eae1463	0.3399993
199	0xbe625d4a	-0.221059
200	0x3bf01e3f	0.0073278244
201	0xbef5fde0	-0.48045254
202	0x3ea612c8	0.32436204
203	0x3f019f75	0.5063394
204	0x3eea8c10	0.45809984
205	0x3e9a079b	0.30083928
206	0x3db60a74	0.088887125
207	0x3c4131b3	0.011791634
208	0x3f049025	0.5178245
209	0x3dd87c12	0.105705395
210	0x3b641210	0.0034800805
211	0x3d5295bc	0.05141233
212	0x3e5f58c6	0.21811208
213	0x3dcb94a7	0.099404626
214	0xbdcb1cf7	-0.09917634
215	0xbaa64568	-0.001268548
216	0x3c4dafd0	0.012554124
217	0xbe843807	-0.25823995
218	0x3b34f767	0.0027613284
219	0x3ed10f0b	0.4083179
220	0xbe5b60e2	-0.21423677
221	0xbe032a4a	-0.12809101
222	0x3e6b1653	0.22957735
223	0xbe9e3fc9	-0.3090804
224	0xbc2ae666	-0.010430908
225	0xbeccb1fe	-0.39979547
226	0x3e5da9c7	0.21646796
227	0x3f0f4f30	0.55980206
228	0xbe5570ff	-0.20843886
229	0xbe80de85	-0.2516977
230	0x3f347e69	0.70505387
231	0x3e44c8c6	0.19217214
232	0x3eaf3c78	0.34225821
233	0x3e214ab1	0.15751149
234	0xbe9184b9	-0.28421572
235	0xbdd7a8b1	-0.10530222
236	0xbc872cee	-0.016500916
237	0xbe83cc31	-0.25741723
238	0x3e8ba5df	0.27274987
239	0xbeb38074	-0.3505894
240	0xbe5a3936	-0.21310887
241	0xbf46a2e8	-0.77592325
242	0x3c75def7	0.015006772
243	0x3d0f3150	0.034959137
244	0x3e4563e9	0.19276394
245	0xbdd8a27d	-0.10577867
246	0x3d3f1cec	0.04665844
247	0x3b25e3d5	0.00253128
248	0xbbc12171	-0.005893879
249	0xbd8014ee	-0.06253992
250	0x3e1e2d57	0.15446983
251	0xbe4cc691	-0.19997622
252	0xbeab3b97	-0.334439
253	0x3dab47a5	0.083632745
254	0x3f49b3b0	0.78789806
255	0xbeb8ab4f	-0.36068198

fc3.bias f4 [2]
0	0x3e21ea74	0.15812093
1	0xbf4c6817	-0.7984633
